…
I0303 12:47:09.427855 27226 upgrade_proto.cpp:626] Successfully upgraded file specified using deprecated V1LayerParameter
I0303 12:47:09.427896 27226 net.cpp:253] The NetState phase (0) differed from the phase (1) specified by a rule in layer data
I0303 12:47:09.427999 27226 net.cpp:42] Initializing net from parameters: 
state {
  phase: TRAIN
}
layer {
  name: "data"
  type: "HDF5Data"
  top: "data"
  top: "label"
  include {
    phase: TRAIN
  }
  hdf5_data_param {
    source: "project/cnn-speech-denoising/dataset/mfcc/clean/train/sampled/filelist.txt"
    batch_size: 50
  }
}
layer {
  name: "flat"
  type: "Flatten"
  bottom: "label"
  top: "flat"
}
layer {
  name: "conv1"
  type: "Convolution"
  bottom: "data"
  top: "conv1"
  param {
    lr_mult: 1
  }
  param {
    lr_mult: 2
  }
  convolution_param {
    num_output: 4
    stride: 1
    weight_filler {
      type: "xavier"
      std: 0.0001
    }
    bias_filler {
      type: "constant"
    }
    pad_h: 38
    pad_w: 2
    kernel_h: 39
    kernel_w: 5
  }
}
layer {
  name: "relu1"
  type: "ReLU"
  bottom: "conv1"
  top: "relu1"
}
layer {
  name: "conv2"
  type: "Convolution"
  bottom: "relu1"
  top: "conv2"
  param {
    lr_mult: 1
  }
  param {
    lr_mult: 2
  }
  convolution_param {
    num_output: 8
    stride: 1
    weight_filler {
      type: "xavier"
      std: 0.0001
    }
    bias_filler {
      type: "constant"
    }
    pad_h: 38
    pad_w: 2
    kernel_h: 39
    kernel_w: 5
  }
}
layer {
  name: "relu2"
  type: "ReLU"
  bottom: "conv2"
  top: "relu2"
}
layer {
  name: "conv3"
  type: "Convolution"
  bottom: "relu2"
  top: "conv3"
  param {
    lr_mult: 1
  }
  param {
    lr_mult: 2
  }
  convolution_param {
    num_output: 2
    stride: 1
    weight_filler {
      type: "xavier"
      std: 0.0001
    }
    bias_filler {
      type: "constant"
    }
    pad_h: 38
    pad_w: 2
    kernel_h: 39
    kernel_w: 5
  }
}
layer {
  name: "fc"
  type: "InnerProduct"
  bottom: "conv3"
  top: "fc"
  param {
    lr_mult: 1
    decay_mult: 1
  }
  param {
    lr_mult: 2
    decay_mult: 0
  }
  inner_product_param {
    num_output: 780
    weight_filler {
      type: "gaussian"
      std: 0.01
    }
    bias_filler {
      type: "constant"
      value: 0
    }
  }
}
layer {
  name: "loss"
  type: "HingeLoss"
  bottom: "fc"
  bottom: "flat"
  top: "l1_error"
  loss_weight: 1
}
I0303 12:47:09.428053 27226 layer_factory.hpp:74] Creating layer data
I0303 12:47:09.428064 27226 net.cpp:76] Creating Layer data
I0303 12:47:09.428084 27226 net.cpp:334] data -> data
I0303 12:47:09.428097 27226 net.cpp:334] data -> label
I0303 12:47:09.428108 27226 net.cpp:105] Setting up data
I0303 12:47:09.428113 27226 hdf5_data_layer.cpp:66] Loading list of HDF5 filenames from: project/cnn-speech-denoising/dataset/mfcc/clean/train/sampled/filelist.txt
I0303 12:47:09.428166 27226 hdf5_data_layer.cpp:80] Number of HDF5 files: 1
I0303 12:47:09.728199 27226 net.cpp:112] Top shape: 50 1 257 20 (257000)
I0303 12:47:09.728232 27226 net.cpp:112] Top shape: 50 1 39 20 (39000)
I0303 12:47:09.728260 27226 layer_factory.hpp:74] Creating layer flat
I0303 12:47:09.728272 27226 net.cpp:76] Creating Layer flat
I0303 12:47:09.728278 27226 net.cpp:372] flat <- label
I0303 12:47:09.728310 27226 net.cpp:334] flat -> flat
I0303 12:47:09.728327 27226 net.cpp:105] Setting up flat
I0303 12:47:09.728330 27226 net.cpp:112] Top shape: 50 780 1 1 (39000)
I0303 12:47:09.728334 27226 layer_factory.hpp:74] Creating layer conv1
I0303 12:47:09.728343 27226 net.cpp:76] Creating Layer conv1
I0303 12:47:09.728346 27226 net.cpp:372] conv1 <- data
I0303 12:47:09.728353 27226 net.cpp:334] conv1 -> conv1
I0303 12:47:09.728358 27226 net.cpp:105] Setting up conv1
I0303 12:47:09.728710 27226 net.cpp:112] Top shape: 50 4 295 20 (1180000)
I0303 12:47:09.728727 27226 layer_factory.hpp:74] Creating layer relu1
I0303 12:47:09.728734 27226 net.cpp:76] Creating Layer relu1
I0303 12:47:09.728737 27226 net.cpp:372] relu1 <- conv1
I0303 12:47:09.728742 27226 net.cpp:334] relu1 -> relu1
I0303 12:47:09.728749 27226 net.cpp:105] Setting up relu1
I0303 12:47:09.728754 27226 net.cpp:112] Top shape: 50 4 295 20 (1180000)
I0303 12:47:09.728756 27226 layer_factory.hpp:74] Creating layer conv2
I0303 12:47:09.728763 27226 net.cpp:76] Creating Layer conv2
I0303 12:47:09.728767 27226 net.cpp:372] conv2 <- relu1
I0303 12:47:09.728773 27226 net.cpp:334] conv2 -> conv2
I0303 12:47:09.728778 27226 net.cpp:105] Setting up conv2
I0303 12:47:09.728822 27226 net.cpp:112] Top shape: 50 8 333 20 (2664000)
I0303 12:47:09.728831 27226 layer_factory.hpp:74] Creating layer relu2
I0303 12:47:09.728835 27226 net.cpp:76] Creating Layer relu2
I0303 12:47:09.728838 27226 net.cpp:372] relu2 <- conv2
I0303 12:47:09.728843 27226 net.cpp:334] relu2 -> relu2
I0303 12:47:09.728847 27226 net.cpp:105] Setting up relu2
I0303 12:47:09.728852 27226 net.cpp:112] Top shape: 50 8 333 20 (2664000)
I0303 12:47:09.728854 27226 layer_factory.hpp:74] Creating layer conv3
I0303 12:47:09.728859 27226 net.cpp:76] Creating Layer conv3
I0303 12:47:09.728863 27226 net.cpp:372] conv3 <- relu2
I0303 12:47:09.728868 27226 net.cpp:334] conv3 -> conv3
I0303 12:47:09.728873 27226 net.cpp:105] Setting up conv3
I0303 12:47:09.728910 27226 net.cpp:112] Top shape: 50 2 371 20 (742000)
I0303 12:47:09.728919 27226 layer_factory.hpp:74] Creating layer fc
I0303 12:47:09.728925 27226 net.cpp:76] Creating Layer fc
I0303 12:47:09.728937 27226 net.cpp:372] fc <- conv3
I0303 12:47:09.728942 27226 net.cpp:334] fc -> fc
I0303 12:47:09.728948 27226 net.cpp:105] Setting up fc
I0303 12:47:09.836138 27226 net.cpp:112] Top shape: 50 780 1 1 (39000)
I0303 12:47:09.836187 27226 layer_factory.hpp:74] Creating layer loss
I0303 12:47:09.836201 27226 net.cpp:76] Creating Layer loss
I0303 12:47:09.836206 27226 net.cpp:372] loss <- fc
I0303 12:47:09.836220 27226 net.cpp:372] loss <- flat
I0303 12:47:09.836227 27226 net.cpp:334] loss -> l1_error
I0303 12:47:09.836236 27226 net.cpp:105] Setting up loss
I0303 12:47:09.836242 27226 net.cpp:112] Top shape: 1 1 1 1 (1)
I0303 12:47:09.836246 27226 net.cpp:118]     with loss weight 1
I0303 12:47:09.836267 27226 net.cpp:163] loss needs backward computation.
I0303 12:47:09.836272 27226 net.cpp:163] fc needs backward computation.
I0303 12:47:09.836276 27226 net.cpp:163] conv3 needs backward computation.
I0303 12:47:09.836279 27226 net.cpp:163] relu2 needs backward computation.
I0303 12:47:09.836283 27226 net.cpp:163] conv2 needs backward computation.
…
