…
I0303 12:45:50.098336 26781 upgrade_proto.cpp:626] Successfully upgraded file specified using deprecated V1LayerParameter
I0303 12:45:50.098376 26781 net.cpp:253] The NetState phase (0) differed from the phase (1) specified by a rule in layer data
I0303 12:45:50.098471 26781 net.cpp:42] Initializing net from parameters: 
state {
  phase: TRAIN
}
layer {
  name: "data"
  type: "HDF5Data"
  top: "data"
  top: "label"
  include {
    phase: TRAIN
  }
  hdf5_data_param {
    source: "project/cnn-speech-denoising/dataset/mfcc/noisy/train/sampled/filelist.txt"
    batch_size: 50
  }
}
layer {
  name: "flat"
  type: "Flatten"
  bottom: "label"
  top: "flat"
}
layer {
  name: "conv1"
  type: "Convolution"
  bottom: "data"
  top: "conv1"
  param {
    lr_mult: 1
  }
  param {
    lr_mult: 2
  }
  convolution_param {
    num_output: 4
    stride: 1
    weight_filler {
      type: "xavier"
      std: 0.0001
    }
    bias_filler {
      type: "constant"
    }
    pad_h: 38
    pad_w: 2
    kernel_h: 39
    kernel_w: 5
  }
}
layer {
  name: "relu1"
  type: "ReLU"
  bottom: "conv1"
  top: "relu1"
}
layer {
  name: "conv2"
  type: "Convolution"
  bottom: "relu1"
  top: "conv2"
  param {
    lr_mult: 1
  }
  param {
    lr_mult: 2
  }
  convolution_param {
    num_output: 8
    stride: 1
    weight_filler {
      type: "xavier"
      std: 0.0001
    }
    bias_filler {
      type: "constant"
    }
    pad_h: 38
    pad_w: 2
    kernel_h: 39
    kernel_w: 5
  }
}
layer {
  name: "relu2"
  type: "ReLU"
  bottom: "conv2"
  top: "relu2"
}
layer {
  name: "conv3"
  type: "Convolution"
  bottom: "relu2"
  top: "conv3"
  param {
    lr_mult: 1
  }
  param {
    lr_mult: 2
  }
  convolution_param {
    num_output: 2
    stride: 1
    weight_filler {
      type: "xavier"
      std: 0.0001
    }
    bias_filler {
      type: "constant"
    }
    pad_h: 38
    pad_w: 2
    kernel_h: 39
    kernel_w: 5
  }
}
layer {
  name: "fc"
  type: "InnerProduct"
  bottom: "conv3"
  top: "fc"
  param {
    lr_mult: 1
    decay_mult: 1
  }
  param {
    lr_mult: 2
    decay_mult: 0
  }
  inner_product_param {
    num_output: 780
    weight_filler {
      type: "gaussian"
      std: 0.01
    }
    bias_filler {
      type: "constant"
      value: 0
    }
  }
}
layer {
  name: "loss"
  type: "HingeLoss"
  bottom: "fc"
  bottom: "flat"
  top: "l1_error"
  loss_weight: 1
}
I0303 12:45:50.098522 26781 layer_factory.hpp:74] Creating layer data
I0303 12:45:50.098532 26781 net.cpp:76] Creating Layer data
I0303 12:45:50.098537 26781 net.cpp:334] data -> data
I0303 12:45:50.098551 26781 net.cpp:334] data -> label
I0303 12:45:50.098561 26781 net.cpp:105] Setting up data
I0303 12:45:50.098564 26781 hdf5_data_layer.cpp:66] Loading list of HDF5 filenames from: project/cnn-speech-denoising/dataset/mfcc/noisy/train/sampled/filelist.txt
I0303 12:45:50.098608 26781 hdf5_data_layer.cpp:80] Number of HDF5 files: 1
I0303 12:45:50.392150 26781 net.cpp:112] Top shape: 50 1 257 20 (257000)
I0303 12:45:50.392182 26781 net.cpp:112] Top shape: 50 1 39 20 (39000)
I0303 12:45:50.392209 26781 layer_factory.hpp:74] Creating layer flat
I0303 12:45:50.392220 26781 net.cpp:76] Creating Layer flat
I0303 12:45:50.392226 26781 net.cpp:372] flat <- label
I0303 12:45:50.392256 26781 net.cpp:334] flat -> flat
I0303 12:45:50.392271 26781 net.cpp:105] Setting up flat
I0303 12:45:50.392277 26781 net.cpp:112] Top shape: 50 780 1 1 (39000)
I0303 12:45:50.392280 26781 layer_factory.hpp:74] Creating layer conv1
I0303 12:45:50.392288 26781 net.cpp:76] Creating Layer conv1
I0303 12:45:50.392292 26781 net.cpp:372] conv1 <- data
I0303 12:45:50.392297 26781 net.cpp:334] conv1 -> conv1
I0303 12:45:50.392303 26781 net.cpp:105] Setting up conv1
I0303 12:45:50.392663 26781 net.cpp:112] Top shape: 50 4 295 20 (1180000)
I0303 12:45:50.392680 26781 layer_factory.hpp:74] Creating layer relu1
I0303 12:45:50.392688 26781 net.cpp:76] Creating Layer relu1
I0303 12:45:50.392691 26781 net.cpp:372] relu1 <- conv1
I0303 12:45:50.392696 26781 net.cpp:334] relu1 -> relu1
I0303 12:45:50.392701 26781 net.cpp:105] Setting up relu1
I0303 12:45:50.392705 26781 net.cpp:112] Top shape: 50 4 295 20 (1180000)
I0303 12:45:50.392709 26781 layer_factory.hpp:74] Creating layer conv2
I0303 12:45:50.392716 26781 net.cpp:76] Creating Layer conv2
I0303 12:45:50.392719 26781 net.cpp:372] conv2 <- relu1
I0303 12:45:50.392724 26781 net.cpp:334] conv2 -> conv2
I0303 12:45:50.392729 26781 net.cpp:105] Setting up conv2
I0303 12:45:50.392772 26781 net.cpp:112] Top shape: 50 8 333 20 (2664000)
I0303 12:45:50.392781 26781 layer_factory.hpp:74] Creating layer relu2
I0303 12:45:50.392794 26781 net.cpp:76] Creating Layer relu2
I0303 12:45:50.392797 26781 net.cpp:372] relu2 <- conv2
I0303 12:45:50.392802 26781 net.cpp:334] relu2 -> relu2
I0303 12:45:50.392815 26781 net.cpp:105] Setting up relu2
I0303 12:45:50.392818 26781 net.cpp:112] Top shape: 50 8 333 20 (2664000)
I0303 12:45:50.392822 26781 layer_factory.hpp:74] Creating layer conv3
I0303 12:45:50.392827 26781 net.cpp:76] Creating Layer conv3
I0303 12:45:50.392830 26781 net.cpp:372] conv3 <- relu2
I0303 12:45:50.392835 26781 net.cpp:334] conv3 -> conv3
I0303 12:45:50.392839 26781 net.cpp:105] Setting up conv3
I0303 12:45:50.392866 26781 net.cpp:112] Top shape: 50 2 371 20 (742000)
I0303 12:45:50.392874 26781 layer_factory.hpp:74] Creating layer fc
I0303 12:45:50.392879 26781 net.cpp:76] Creating Layer fc
I0303 12:45:50.392884 26781 net.cpp:372] fc <- conv3
I0303 12:45:50.392887 26781 net.cpp:334] fc -> fc
I0303 12:45:50.392894 26781 net.cpp:105] Setting up fc
I0303 12:45:50.499876 26781 net.cpp:112] Top shape: 50 780 1 1 (39000)
I0303 12:45:50.499900 26781 layer_factory.hpp:74] Creating layer loss
I0303 12:45:50.499928 26781 net.cpp:76] Creating Layer loss
I0303 12:45:50.499934 26781 net.cpp:372] loss <- fc
I0303 12:45:50.499948 26781 net.cpp:372] loss <- flat
I0303 12:45:50.499955 26781 net.cpp:334] loss -> l1_error
I0303 12:45:50.499963 26781 net.cpp:105] Setting up loss
I0303 12:45:50.499969 26781 net.cpp:112] Top shape: 1 1 1 1 (1)
I0303 12:45:50.499972 26781 net.cpp:118]     with loss weight 1
I0303 12:45:50.499994 26781 net.cpp:163] loss needs backward computation.
I0303 12:45:50.499999 26781 net.cpp:163] fc needs backward computation.
I0303 12:45:50.500001 26781 net.cpp:163] conv3 needs backward computation.
I0303 12:45:50.500005 26781 net.cpp:163] relu2 needs backward computation.
I0303 12:45:50.500008 26781 net.cpp:163] conv2 needs backward computation.
…
